demo/src/main/assets/model.pt (torch, 343346 bytes, 14 tensors)

weight f4 [32, 3, 3, 3]
00000000: ce07 c63c 8f25 4d3c c160 663b 8781 0ebb
00000010: 9c96 93bc e761 1abc 0e87 0fbb 0d73 6c3b
00000020: 20de 933c fd7b 2c3d 42c5 413c 65e9 01bc
00000030: eeba 863c 0df2 203c 590e d23c c8ea c43b
00000040: 2e1e d03b 92a1 173d 45b8 48bd 5f21 76bd
00000050: 1374 6dbd fb49 a1bd 4320 bebd 9155 79bd
00000060: f250 93bd 03a9 cfbd 3352 7ebd e731 25bb
00000070: 59c1 15bd 1767 e1bd 0150 ab3b 9836 38bd
00000080: 8a18 9abd 26dd 983c 6584 2239 5c57 0dbd
00000090: 8aa4 a33b 5cf7 eabc 7d46 79bd 5ceb f23b
000000a0: 845b 2fbd 9bd9 63bd 9231 ec3c ca49 ba3c
000000b0: 8b3a e53b fb86 67bc 6c8b 65bd 1f69 85bd
000000c0: d693 f3ba 517c 90bd dad5 87bd ed7a 093d
000000d0: 0244 0bbb c259 42bc 3902 463c e4fb 11bc
000000e0: e51f 173c dbd3 5a37 6497 183c 02b9 f93b
000000f0: 50c1 943c 0158 4fbc c5a8 fc3b a72e 983b
00000100: e102 81bc 4709 d7bb bc33 673c 34fd 5bbc
00000110: 7163 4dbc 3d95 3cbc a2cb 04bc 4bb8 b3bc
00000120: 65cd 21bb 2dd9 76bc 9f4e ecbc 6935 8fbc
00000130: a84e acbc fff1 cbbc 2c8f 3dbc b895 cbbc
00000140: 0eb5 7abc 3290 27ba c7a9 a63a b5a7 c3bc
00000150: cef1 9dbc 62dd 68bc 2f14 a1bc 8fc8 9cbc
00000160: 8cbe 50bc b97c 9e3c 9636 833c 5410 b33b
00000170: 6c2f a3bb d4f3 05ba 00c8 57bc 19f1 8eba
00000180: 429a 503d 90c7 2f3d cc03 653d 7070 53bd
00000190: 1109 02bd 2df1 fcbc 1853 a6bc 14e4 7bbc
000001a0: 3ad8 613c 4bdb 39bc 5ad3 923c b132 913d
000001b0: f3b1 de3b 3d8b f43a 6951 12bb 0d03 8db8
000001c0: 90fc 20bc 6206 4bbc 17f5 ebbc 27c3 47bc
000001d0: 004a f5bc 7846 b23c 6c6f ec3c 85d2 c6bc
000001e0: f8de 91bc 355e cabb fdba 19bd 6974 25bc
000001f0: b253 8bbc 7288 18bd f9ef 5d3d 2b45 b4b9
00000200: 5de1 853b 0fc0 8b3c 629a 12bb 637d 46bc
00000210: e967 103d ea42 93bb ef1a 09bc 5431 f6b5
00000220: 2ad5 e8b5 9584 cab5 7c0d f5b5 2a23 dfb5
00000230: 8cf4 bdb5 e31f f1b5 ccc6 deb5 7bf9 b7b5
00000240: ceb9 1eb6 73d4 1eb6 c7ac 0eb6 f8ff 20b6
00000250: 2e53 1fb6 c908 0eb6 c6c0 1bb6 987c 1bb6
00000260: f1e8 08b6 0184 46b5 67b3 46b5 0049 30b5
00000270: ad2c 4ab5 bf64 48b5 0b80 31b5 ed33 47b5
00000280: 1daf 47b5 3acb 2eb5 4ea2 5ebb c1dd 59bb
00000290: b46c 54bb 012c 62bb 16a7 5dbb 6da0 58bb
000002a0: 28cd 61bb 6b17 5ebb e94e 59bb 6e5c 64bb
000002b0: 653f 5ebb 683e 5abb 55ea 65bb ce17 60bb
000002c0: 1e98 5cbb dc37 65bb dc4e 60bb 44f7 5cbb
000002d0: c18a 66bb 41eb 61bb 766c 5dbb 9fb1 67bb
000002e0: 5aba 64bb a202 61bb 3211 63bb a951 61bb
000002f0: c18e 5fbb c1b9 9b3c d0cf 25bb 0d42 573c
00000300: 6a5a afbb d9ac 62bc 625c 253c 3bae cfbc
00000310: 27eb b4bc 40ff 3fbc f17e 02bd ac44 08bd
00000320: bb09 a3bc 8122 9bbc 96a6 99bc 78f9 fcbc
00000330: 7fc8 54bd 20ca 6bbd c181 d2bc 293a 1f3d
00000340: d4eb 0f3d 048c 6f3d 39da 643c 7458 023b
00000350: ef38 153d f97a 3f3d 67da f23c fd0f 4d3d
00000360: 029a d4bb 9bd2 183b 7f9a f63b c23b e7bb
00000370: aa5d aebc e88d 7abc 245d e5bb 9752 97bc
00000380: ac74 c8bb de4f a43c 38b8 2ebc 2ec2 2e3c
00000390: 9925 c7bb 333c 75bc c1c8 2b39 9c22 763b
000003a0: 872b a43c b52e 083d d34c 0abd 53de f3bc
000003b0: 6765 9abc dc70 94bc 01b7 34bc 82f7 86bc
000003c0: cfb7 b3bc 3262 a3bc d3d9 403c 2341 20bd
000003d0: 99d5 16bc 50dc 02bd 923b 6bbc 9308 3cbc
000003e0: 1ab3 f1bc 3507 6db9 55ff 6f3c eb1b 5d3c
000003f0: 3b88 2cbc b54e 94bc 1b64 ce3b 050f cabc
0.024173643 0.012521162 0.0035152885 -0.0021744685 -0.018016152 -0.009422756 -0.0021900567 0.0036079318
0.018050253 0.042110432 0.011826815 -0.007929181 0.016446557 0.009823334 0.025641607 0.0060094334
0.006351254 0.03701932 -0.049003858 -0.06009042 -0.057972025 -0.07875439 -0.09283497 -0.060872618
-0.071931735 -0.10139658 -0.06209011 -0.0025206746 -0.036561344 -0.11005991 0.005228043 -0.04497394
-0.07524212 0.01866014 0.00015498845 -0.03450714 0.00499398 -0.028682403 -0.06085824 0.007413311
-0.042811885 -0.055627447 0.02883223 0.022740263 0.0069955043 -0.014131303 -0.056041166 -0.06514191
-0.0018583487 -0.070549615 -0.06632586 0.033564497 -0.0021250253 -0.01186222 0.012085491 -0.008910153
0.009223913 1.3043139e-05 0.009313438 0.0076209316 0.018158585 -0.012655259 0.0077105486 0.0046442333
-0.015748443 -0.0065623852 0.0141114555 -0.013427068 -0.012535916 -0.011510191 -0.0081051905 -0.021938464
-0.0024689075 -0.015066427 -0.028846083 -0.017481523 -0.0210336 -0.024895666 -0.011569779 -0.024851665
-0.015301956 -0.0006392031 0.0012715393 -0.02388368 -0.01928034 -0.014212938 -0.019662945 -0.019138603
-0.012740742 0.019346582 0.01601724 0.005464593 -0.0049800184 -0.00051098806 -0.013170242 -0.0010905593
0.05092836 0.042914927 0.055911824 -0.0516209 -0.031746928 -0.03087672 -0.020303294 -0.015374202
0.013784463 -0.011343787 0.017923046 0.07089747 0.0067961155 0.0018657219 -0.0022326356 -6.723972e-05
-0.009825841 -0.0123916585 -0.028803391 -0.012192524 -0.029942513 0.021762118 0.028861724 -0.024270305
-0.017806515 -0.006175781 -0.03753184 -0.010098555 -0.017007682 -0.0372395 0.054183934 -0.0003438381
0.0040857033 0.017059354 -0.0022369851 -0.012114855 0.035255346 -0.0044940608 -0.008368238 -1.8342785e-06
-1.7347386e-06 -1.5088759e-06 -1.8257847e-06 -1.6625029e-06 -1.415277e-06 -1.796518e-06 -1.6598146e-06 -1.3707171e-06
-2.3651987e-06 -2.3667496e-06 -2.1260219e-06 -2.3990851e-06 -2.3741263e-06 -2.1164763e-06 -2.3209009e-06 -2.3169323e-06
-2.040117e-06 -7.395284e-07 -7.402181e-07 -6.567134e-07 -7.5315876e-07 -7.465241e-07 -6.6123965e-07 -7.420884e-07
-7.43881e-07 -6.5115785e-07 -0.0033971253 -0.0033243748 -0.0032413425 -0.0034511092 -0.0033821515 -0.0033054606
-0.0034454558 -0.003388847 -0.0033158606 -0.0034845131 -0.0033912298 -0.0033301357 -0.00350823 -0.0034193876
-0.0033660005 -0.0034975922 -0.0034226691 -0.0033716718 -0.0035177919 -0.0034472498 -0.0033786572 -0.0035353673
-0.0034901113 -0.0034333845 -0.00346477 -0.0034380949 -0.0034112188 0.019009473 -0.0025300868 0.013138306
-0.0053513544 -0.013835155 0.010092827 -0.025351634 -0.022084786 -0.011718571 -0.031859342 -0.033268616
-0.0199021 -0.018937351 -0.018756192 -0.030880675 -0.05194902 -0.05756581 -0.025696637 0.038873825
0.035137013 0.05848314 0.013968044 0.0019889148 0.03643125 0.046748135 0.029645158 0.050064076
-0.0064880857 0.002331889 0.0075257416 -0.0070566842 -0.021284897 -0.015292622 -0.0069996286 -0.018472
-0.006117424 0.020057615 -0.010664038 0.010666413 -0.00607748 -0.014967966 0.00016382617 0.003755725
0.020040287 0.03324767 -0.03376467 -0.029769098 -0.01884718 -0.018120222 -0.01102996 -0.016475443
-0.021938233 -0.019944284 0.011770683 -0.03912462 -0.009206199 -0.031948388 -0.014357464 -0.011476654
-0.029504348 -0.00022604766 0.014648278 0.013495426 -0.010530527 -0.018103937 0.0062985546 -0.024665365

bias f4 [32]
00000000: db08 ab3d 8285 c43d ffb9 443e 8d24 bf3b
00000010: 4a9b 163e f004 b9b8 cc56 baba 8fe4 6f3d
00000020: cfc6 343e 64b2 0d3e bb31 b8ab e824 5a3d
00000030: e882 f8bb 5486 7c3b cd45 80bb 6d6a 283b
00000040: 5759 2e3e 6df5 7e96 831b 373d 2a8c 193b
00000050: 3d5c 7d3c e99b e1ba 079d 713d a07c 213e
00000060: 0160 9abc b9a1 15bb 84bb 11b9 7918 f5b6
00000070: 039d 1ab8 4915 5fb2 e829 22ba 7439 97bb
0.083512984 0.09595777 0.19211577 0.0058332146 0.14707676 -8.822407e-05 -0.0014216541 0.05856758
0.17653964 0.13837582 -1.3087789e-12 0.053257853 -0.0075839646 0.0038532214 -0.003914571 0.00256982
0.17026268 -2.0595399e-25 0.04470397 0.0023429492 0.015463886 -0.0017212603 0.058987644 0.15770197
-0.018844606 -0.002283199 -0.00013898133 -7.304418e-06 -3.686269e-05 -1.2985148e-08 -0.0006186054 -0.0046150032

weight f4 [32, 32, 3, 3]
00000000: dea2 62bc 84bb 9abb 4de9 373b 4100 c3bb
00000010: 1b71 a63b cdd7 3a3c 24d4 ba3b 2089 813c
00000020: 3d73 8e3c 006a 0fbc ef36 d23a a9e5 87ba
00000030: 86ed 11bc d0f3 b03b 0875 8fba e8dc eb3a
00000040: dcbc 6a3c e3ca 1ab9 7c7c 5cbc 2a46 52ba
00000050: e6aa bb3b efef e8bb cd2d c83b 85af 093c
00000060: a658 b4ba d6e1 373c ce52 ef3b 012d 2b3a
00000070: c1d6 bfba 07af 64bb 6bff a9bb 40c3 a7b8
00000080: 9563 dd3b a769 3ebb 256a eb3b 0f67 cb3c
00000090: c56a 33bc 3aa2 743a 82fb a13b 2b00 8ebb
000000a0: 7dca 573b 076c 413b 6ed0 3e3b 34ec 853b
000000b0: c8e4 2bbc df6c 0080 2a16 0000 029b 0000
000000c0: 2010 0000 63a8 0000 5ee9 0080 bdea 0000
000000d0: a885 0080 6bef 0000 6ed9 132f 88ac 9230
000000e0: 2fbf 2932 7d2d ef2f 71c0 4f31 bb21 b932
000000f0: 15a8 3031 0de4 5d32 9698 8a33 cc5a 46ba
00000100: 106c 8d3b 29a5 913b f294 abba 8cbc 853b
00000110: 5456 793b 89f6 4ebb bcc4 0d3b 3e66 5f3a
00000120: 1eb4 18bc 572c 4b3b 2f4c 133b 8b91 d9bb
00000130: 986f a73b 945a 3d3c 1fa4 1dbb aba7 543c
00000140: 1e5d 9a3c d8f3 fab9 84c5 cf3b a1b1 ff3b
00000150: cc7d 26bc 2852 c43b f00f 283c fce4 88bb
00000160: da17 623c f076 b83c 4dbd 0080 3e10 0080
00000170: b022 0180 bfeb 0080 4b80 0100 6b95 0100
00000180: dd41 0080 3df9 0000 c7de 0080 0fd7 603b
00000190: 5d98 9d3b 09de 70bb 4f97 8e3b 9ae6 ea3b
000001a0: d5ea 40bb 501b 99b9 b9ca a23a 5ec3 49bc
000001b0: 9e8b c7bc 8c61 7ebc 43cb b83b 3ced 84bc
000001c0: 777a 70bc 3d2d 183b f938 babb c460 ccbb
000001d0: 4d55 d73b 2e35 8539 7da5 2939 cffc 7eb9
000001e0: a002 7eb9 2a84 c9b9 5ac0 70ba f800 4a3b
000001f0: 0ad4 403b 751e 263b e67d 8abd f167 4bbd
00000200: dec4 fbbc 9921 e5bc cd47 e5bc 3c2e 23bc
00000210: cf1f e7bb 4275 a5bc 7760 90bc 6166 24bc
00000220: 5f81 843a 807f 693b f9aa 1b3a 3692 063c
00000230: 1b8a 283c a2c7 803b be9c 243c 7778 293c
00000240: 56ac 39bc cc5b 653b 757f e83b 8eef 99bb
00000250: 007b f43b 56af 153c 0f2c 133b ea0f 393c
00000260: 05ad 833b 13fa 0080 3c6c 0000 341e 0000
00000270: 1163 0180 334d 0100 9e0e 0080 1402 0000
00000280: 1c3d 0100 204d 0100 d3d5 8bba d632 24bc
00000290: 3104 e1bc fa4f 31bc 31cd 35bc e693 b7bc
000002a0: 9852 03bc 182e 4dbb d1f3 b9bb 9d53 5bb9
000002b0: 73e7 c4b9 0e1f 46ba ad13 09ba c57a 2cba
000002c0: 9711 7fba f860 9e3a 2506 893a b16f 513a
000002d0: f017 2538 c6c7 ef3a 21ce 5f3a 2734 dd37
000002e0: 3ad9 e73a 499a 683a 55e2 9eba 2ecf a939
000002f0: e0fd bab9 62ee 6117 61b4 0417 638d 7195
00000300: 6aaa 2d96 2695 e716 2246 2c97 ad8c 9c97
00000310: dce6 3a97 2d66 6717 6186 b43a 69e9 973b
00000320: 4702 d53a d07a ca3a 144c c03b 7f28 6a3a
00000330: 3d00 473a 8c79 663b f79b d9bb 8f2d ed3a
00000340: aa3a 083c b58e e23b 01bc 2dbb 770a c93b
00000350: 9971 833b e231 03ba cfe9 013c 0789 643b
00000360: 6bae cbbb d16e a8bb 1950 363b fa04 e2bb
00000370: a0dc 2cbc 22dd 9bbb 1ac1 abbb cd8f 20bc
00000380: a650 6836 0bd7 11bd 456a 13bc 0c71 3d3b
00000390: 9dee d4bc 0132 8cbc 04f0 36bc 11dc fcb7
000003a0: b25b b8bb f2dc 95bc 5fce d5bb 4eab 8cbb
000003b0: dfd9 2f3a 5cb6 22bb ad96 c1b9 78f7 983b
000003c0: 9a5a 9a39 b86c 323b 1c0e 073c 5318 0000
000003d0: 7c3e 0180 68c2 0100 8ea9 0180 d182 0000
000003e0: 5122 0000 e7bd 0100 98ce 0180 9f30 0000
000003f0: db63 0000 5c9b 0000 9195 0080 3c3b 0000
-0.013832776 -0.0047220606 0.0028062642 -0.005950958 0.005079401 0.01140399 0.0057015587 0.015812457
0.017388934 -0.0087533 0.00160381 -0.0010368127 -0.008906728 0.0054001585 -0.0010944912 0.0017994912
0.014327254 -0.00014762166 -0.013457414 -0.00080213195 0.00572716 -0.0071086804 0.0061089755 0.0084036635
-0.001375933 0.011223277 0.0073035723 0.00065298384 -0.0014636145 -0.0034894363 -0.005187919 -7.999549e-05
0.006756256 -0.0029054673 0.0071842843 0.024829416 -0.010950749 0.0009332035 0.004943312 -0.004333516
0.003292709 0.0029513852 0.0029115933 0.0040869955 -0.010491557 -3.9056e-41 7.951e-42 5.5606e-41
5.785e-42 6.0406e-41 -8.3716e-41 8.4208e-41 -4.7947e-41 8.5887e-41 1.3446819e-10 1.0671934e-09
9.880565e-09 4.3506168e-10 3.0231855e-09 2.1552173e-08 2.5706914e-09 1.2915746e-08 6.453881e-08 -0.00075666304
0.0043158606 0.0044447375 -0.0013090654 0.0040813144 0.003804584 -0.0031580052 0.0021632155 0.000852201
-0.009320287 0.003100177 0.002247583 -0.0066396645 0.0051097386 0.01155724 -0.0024054123 0.012979428
0.01884323 -0.00047865394 0.0063406844 0.0078031574 -0.010161828 0.005991239 0.010257706 -0.0041776877
0.013799632 0.022517651 -6.7908e-41 -5.827e-42 -1.04279e-40 -8.457e-41 1.37858e-40 1.45437e-40
-2.3627e-41 8.941e-41 -7.9917e-41 0.0034307872 0.004809423 -0.0036753437 0.0043515335 0.007168603
-0.0029436846 -0.00029202783 0.0012420035 -0.012314646 -0.024358567 -0.015526187 0.005639465 -0.016226403
-0.014677635 0.0023220323 -0.005683061 -0.0062371213 0.006571448 0.0002540736 0.00016178745 -0.00024317506
-0.00024224306 -0.00038436177 -0.0009183936 0.0030823331 0.002942326 0.0025347744 -0.067622945 -0.049659673
-0.030733522 -0.027970122 -0.027988339 -0.009959754 -0.0070533524 -0.020197514 -0.017624123 -0.010034175
0.0010109356 0.0035628974 0.00059382577 0.00821357 0.010286833 0.003930048 0.010047136 0.010343662
-0.011332592 0.0034997342 0.007095272 -0.0046977466 0.007460952 0.009136042 0.002245668 0.011295298
0.0040184283 -8.971e-41 3.8827e-41 1.0835e-41 -1.27374e-40 1.1953e-40 -5.244e-42 7.45e-43
1.13757e-40 1.19503e-40 -0.0010668583 -0.010021886 -0.027467819 -0.010822291 -0.011096285 -0.02240939
-0.008015297 -0.0031307992 -0.005674817 -0.00020916616 -0.00037556476 -0.0007557728 -0.0005229067 -0.00065795734
-0.0009730099 0.0012083342 0.0010454102 0.00079893606 3.936136e-05 0.001829379 0.00085374905 2.6369538e-05
0.001768864 0.0008873088 -0.0012121896 0.00032388553 -0.00035665836 7.30023e-25 4.287917e-25 -4.8781097e-26
-1.4028602e-25 3.7414189e-25 -5.5664717e-25 -1.0116775e-24 -6.0391227e-25 7.476909e-25 0.0013772958 0.004635979
0.0016251289 0.0015447978 0.005868444 0.0008932426 0.0007591283 0.0035167662 -0.006640907 0.0018095243
0.008314768 0.0069139847 -0.0026509764 0.0061352807 0.0040113446 -0.00050046865 0.0079292795 0.0034871714
-0.0062158606 -0.0051401635 0.0027818738 -0.006897566 -0.010550648 -0.0047565857 -0.0052415254 -0.00979991
3.4617638e-06 -0.03560547 -0.008997505 0.0028906493 -0.025992686 -0.017113687 -0.011165623 -3.0143217e-05
-0.0056261653 -0.018293831 -0.0065248455 -0.004292882 0.00067081855 -0.0024827933 -0.0003692409 0.0046681724
0.00029440672 0.0027225446 0.00824311 8.726e-42 -1.1425e-40 1.61575e-40 -1.5266e-40 4.6928e-41
1.231e-41 1.5996e-40 -1.65947e-40 1.7442e-41 3.5821e-41 5.5732e-41 -5.3654e-41 2.1249e-41

bias f4 [32]
00000000: df2c 21bc f3ac f9b8 61c2 093d 16ad 313d
00000010: 8b9a 13b8 fb9e 8d3c 402e 383d 720c 273d
00000020: 8668 36bd 44ee 253d 663d a9bb 4899 043d
00000030: e558 113d 04a3 01a4 66cb d03c 519c 8db7
00000040: fe90 883d cea8 4d98 d329 373c 67ad b43c
00000050: 2e1a 2ab9 0318 093d 1450 c73c 012a fc3c
00000060: 77d4 56bd 522c 7a3d f443 873d d3dc d03c
00000070: 7918 aebc 8f3e 143d e5a7 b1b9 64c3 1eac
-0.009837358 -0.000119054595 0.03363264 0.04337796 -3.519146e-05 0.017287722 0.044965982 0.040783353
-0.044533275 0.04051043 -0.00516479 0.032372743 0.035485167 -2.8110496e-17 0.025487613 -1.68813e-05
0.0666828 -2.6580854e-24 0.011179405 0.02205534 -0.00016222216 0.033470165 0.024330176 0.030781748
-0.052448716 0.061077423 0.06604758 0.025495922 -0.021251904 0.036192473 -0.00033885162 -2.2561614e-12

weight f4 [32, 32, 3, 3]
00000000: 7b48 0080 3747 0000 a799 0000 702e 0180
00000010: c342 0080 e307 0080 3f37 0080 ad67 0000
00000020: 6766 0180 ce03 0080 e950 0000 f069 0080
00000030: 0f44 0000 26dd 0000 91c8 0000 f97c 0080
00000040: faec 0000 a178 0080 7aea 0000 f0de 0080
00000050: d697 0000 5421 0000 12d7 0080 d208 0080
00000060: 1607 0180 287e 0000 2ee3 0080 1d05 0000
00000070: fc45 0080 9dec 0000 78d7 0080 ec2d 0100
00000080: 9cff 0080 77e7 0000 e081 0000 9e0c 0000
00000090: 171e 0200 7904 0080 53df 0000 40f3 0080
000000a0: f494 0100 c7b5 0000 168f 0000 32a3 0080
000000b0: c800 0280 ba70 0080 e609 0100 cb08 0000
000000c0: d453 0180 6bf7 0080 2b2b 0000 bf19 0100
000000d0: 29cb 0000 feb1 0000 334a 0180 c606 0000
000000e0: 3904 0000 1c44 0000 8fdc 0080 4ced 0080
000000f0: c010 0000 b61b 0080 9d1a 0180 b0c6 0080
00000100: 6c53 0000 7cc7 0000 4215 0000 b6cd 0000
00000110: 8613 0000 0d81 0080 433d 0080 d9c4 0080
00000120: 0b21 0000 0d59 0080 b3cd 0000 0ec2 0000
00000130: 46d7 0000 8a95 0000 488f 0080 e314 0000
00000140: 1956 0080 e05f 0080 14eb 0000 300b 0080
00000150: a7f0 0080 2efb 0000 8323 0000 0857 0000
00000160: 8fc3 0000 635c 0080 6319 0080 56a1 0080
00000170: f391 0080 8643 0080 59c2 0080 cae0 0000
00000180: 3036 0000 0f42 0000 6241 0080 ffbd 0000
00000190: 058d 0080 de1a 0000 3467 0000 33c6 0080
000001a0: f045 0080 9762 0000 0e62 0000 95b0 0000
000001b0: 3bff 0000 7568 0080 0999 0080 e6d0 0000
000001c0: 8665 0000 0ec0 0080 f1e6 0000 2766 0000
000001d0: b57f 0000 425d 0000 7e42 0080 4b73 0100
000001e0: 79ee 0000 c674 0000 6448 0180 0965 0080
000001f0: a505 0180 77f8 0100 46ab 0080 75e8 0080
00000200: 1a85 0080 8d8c 0000 9b2f 0080 563e 0080
00000210: 7236 0000 5dab 0000 201b 0000 8d00 0080
00000220: 4c26 0180 c238 0080 5449 0100 7b32 0100
00000230: 0809 0000 d439 0100 f65f 0080 c36c 0180
00000240: addd 0000 8bc4 0080 6ad1 0080 1101 0080
00000250: 57b9 0080 811c 0080 1708 0000 d062 0000
00000260: 92eb 0000 7d08 0080 21cb 0000 3398 0080
00000270: 7828 0100 091b 0080 6b93 0000 9e2c 0080
00000280: 3820 0100 88c7 0180 9335 0100 f208 0100
00000290: 561d 0100 23ea 0000 9500 0000 8f2f 0180
000002a0: a8bc 0000 64c3 0080 25e7 0000 e29f 0080
000002b0: 448e 0000 1e03 0080 62ac 0000 2f5f 0000
000002c0: 4a94 0080 e9d9 0080 9548 0080 a425 0000
000002d0: 8726 0180 9437 0180 536c 0180 f841 0180
000002e0: 48bb 0080 5a10 0180 0300 0280 c327 0280
000002f0: 9c2f 0280 7fc7 0080 6537 0000 f415 0000
00000300: ee0d 0100 56be 0000 771c 0100 8042 0000
00000310: 1f29 0180 e913 0180 5a3d 0180 92ae 0080
00000320: c7ee 0080 58e2 0080 f340 0180 b409 0100
00000330: 067e 0000 3a30 0180 3612 0080 6eeb 0080
00000340: 8ef2 0080 6d68 0080 9a2c 0000 db3b 0080
00000350: 2542 0080 7c13 0000 f366 0080 a18f 0000
00000360: d335 0000 6f3f 0000 7f34 0080 41c4 0000
00000370: e262 0000 8f07 0000 fdda 0080 ee6d 0080
00000380: e4b0 0080 aea5 0000 5e31 0000 a8b4 0080
00000390: 62e3 0080 d25e 0080 3ae0 0000 e7a9 0080
000003a0: 7bd5 0000 9099 0080 ad93 0000 0b5c 0080
000003b0: c845 0080 1b7d 0080 d743 0080 2392 0080
000003c0: 1841 0080 e2d2 0000 6971 0000 811e 0100
000003d0: 6367 0000 f2ff 0080 04ab 0080 ac40 0000
000003e0: b4d0 0080 89d8 0080 ae0f 0180 a006 0000
000003f0: fd86 0080 5728 0080 2115 0080 8d87 0000
-2.6001e-41 2.5547e-41 5.512e-41 -1.08494e-40 -2.395e-41 -2.829e-42 -1.9819e-41 3.7192e-41
-1.2857e-40 -1.365e-42 2.9025e-41 -3.8003e-41 2.4415e-41 7.9333e-41 7.195e-41 -4.4832e-41
8.5011e-41 -4.3273e-41 8.4114e-41 -7.9975e-41 5.4468e-41 1.1956e-41 -7.7153e-41 -3.164e-42
-9.4377e-41 4.5256e-41 -8.1497e-41 1.834e-42 -2.5106e-41 8.4881e-41 -7.7296e-41 1.08309e-40
-9.1695e-41 8.3034e-41 4.659e-41 4.526e-42 1.94465e-40 -1.604e-42 8.0114e-41 -8.7262e-41
1.4527e-40 6.521e-41 5.133e-41 -5.8543e-41 -1.83951e-40 -4.0439e-41 9.5386e-41 3.154e-42
-1.21907e-40 -8.8757e-41 1.5486e-41 1.01071e-40 7.288e-41 6.3852e-41 -1.18453e-40 2.43e-42
1.515e-42 2.4433e-41 -7.9122e-41 -8.5126e-41 6.009e-42 -9.941e-42 -1.01383e-40 -7.1276e-41
2.9926e-41 7.1562e-41 7.626e-42 7.3795e-41 7.004e-42 -4.6295e-41 -2.1977e-41 -7.0616e-41
1.1854e-41 -3.1945e-41 7.3791e-41 6.9614e-41 7.7226e-41 5.3645e-41 -5.14e-41 7.493e-42
-3.0886e-41 -3.4393e-41 8.433e-41 -4.013e-42 -8.633e-41 9.0106e-41 1.2739e-41 3.1221e-41
7.0153e-41 -3.3142e-41 -9.107e-42 -5.7876e-41 -5.2357e-41 -2.4223e-41 -6.9719e-41 8.0639e-41
1.9439e-41 2.3697e-41 -2.3455e-41 6.8158e-41 -5.0588e-41 9.638e-42 3.7022e-41 -7.11e-41
-2.5089e-41 3.5367e-41 3.5175e-41 6.3346e-41 9.156e-41 -3.7472e-41 -5.4899e-41 7.4939e-41
3.642e-41 -6.8896e-41 8.2846e-41 3.6645e-41 4.5813e-41 3.3455e-41 -2.3853e-41 1.33195e-40
8.5548e-41 4.189e-41 -1.17804e-40 -3.6245e-41 -9.386e-41 1.80968e-40 -6.1441e-41 -8.339e-41
-4.7748e-41 5.042e-41 -1.7078e-41 -2.2362e-41 1.9531e-41 6.1474e-41 9.73e-42 -1.98e-43
-1.05574e-40 -2.0361e-41 1.1814e-40 1.09944e-40 3.24e-42 1.1258e-40 -3.4424e-41 -1.30852e-40
7.9522e-41 -7.0506e-41 -7.5124e-41 -3.83e-43 -6.6487e-41 -1.0225e-41 2.902e-42 3.5447e-41
8.4507e-41 -3.045e-42 7.2869e-41 -5.4599e-41 1.06353e-40 -9.698e-42 5.2884e-41 -1.6006e-41
1.03393e-40 -1.63414e-40 1.11054e-40 9.5044e-41 1.02359e-40 8.3992e-41 2.09e-43 -1.08896e-40
6.7677e-41 -7.0093e-41 8.2919e-41 -5.7355e-41 5.1035e-41 -1.118e-42 6.184e-41 3.4145e-41
-5.3196e-41 -7.8171e-41 -2.6038e-41 1.3503e-41 -1.05657e-40 -1.11773e-40 -1.30695e-40 -1.155e-40
-6.7184e-41 -9.7701e-41 -1.83675e-40 -1.97935e-40 -2.0075e-40 -7.1566e-41 1.9872e-41 7.875e-42
9.6833e-41 6.828e-41 1.02047e-40 2.3856e-41 -1.06587e-40 -9.8978e-41 -1.13844e-40 -6.2624e-41
-8.5657e-41 -8.1197e-41 -1.15135e-40 9.5316e-41 4.5209e-41 -1.09136e-40 -6.533e-42 -8.4456e-41
-8.7012e-41 -3.7461e-41 1.6e-41 -2.1472e-41 -2.3728e-41 6.99e-42 -3.6931e-41 5.1524e-41
1.9308e-41 2.2756e-41 -1.8832e-41 7.0403e-41 3.5472e-41 2.712e-42 -7.8558e-41 -3.9435e-41
-6.3456e-41 5.9435e-41 1.771e-41 -6.4807e-41 -8.157e-41 -3.4015e-41 8.0437e-41 -6.095e-41
7.6582e-41 -5.5088e-41 5.2976e-41 -3.3019e-41 -2.5033e-41 -4.488e-41 -2.4336e-41 -5.2424e-41
-2.3351e-41 7.565e-41 4.0684e-41 1.02778e-40 3.7088e-41 -9.1816e-41 -6.1349e-41 2.32e-41
-7.4869e-41 -7.7678e-41 -9.746e-41 2.377e-42 -4.8425e-41 -1.4471e-41 -7.58e-42 4.8626e-41

bias f4 [32]
00000000: 1231 86a8 3535 15bd c49e 1cbd 796a 15b1
00000010: bffd d83c fe6e 13bb b2e2 3eba 9e15 9f3c
00000020: 4c25 818e 66e9 8bbc a25a 36bd 1f09 cbbc
00000030: 3b45 923c 982a 338f 4d82 5ba5 ed62 063c
00000040: dd31 71a2 62cf 5d3c 21ff 5eba 3d20 45b9
00000050: 3e88 9fb8 ee8e 21bc 9e8f 9bba 211d 4e3d
00000060: 39fc 39bd af3c 7c3c 3913 efbb 6958 2cbd
00000070: b797 9786 9338 85bc 3406 24ac 5bbb d9bc
-1.489827e-14 -0.036427695 -0.03823735 -2.1742876e-09 0.026488183 -0.0022496576 -0.0007281705 0.019419488
-3.183687e-30 -0.017079066 -0.044520028 -0.024784623 0.017855277 -8.833585e-30 -1.903937e-16 0.008202297
-3.2687988e-18 0.013538213 -0.0008506645 -0.00018799394 -7.607088e-05 -0.009860737 -0.0011868363 0.05032075
-0.045406554 0.0153953275 -0.0072959927 -0.042076502 -5.702281e-35 -0.016262328 -2.3309245e-12 -0.026578596

weight f4 [32, 32, 3, 3]
00000000: c0d3 0000 4656 0000 48e8 0080 dfa6 0080
00000010: aaf4 0080 3fde 0000 3cee 0080 74cc 0080
00000020: 8f5f 0000 ee21 413c 5bbe 223c 4b69 d43b
00000030: a51b cebb f293 153a f5cd 08bc b938 89bc
00000040: 2e40 abbc 15d2 c3bc 5969 1d3d 97fe ef3c
00000050: 19c2 643c 88ca f33a 7dcb 233a 3e6c e6bb
00000060: 1c29 aebc 7779 02bd 73e7 2dbd 70a7 3c18
00000070: c11c 3a18 d8be cd17 1212 2818 0db9 2518
00000080: c07e bd17 3a54 e017 84a3 dd17 4c84 8017
00000090: 37d2 053d da6e d83c c80b 3c3d 8523 5e3c
000000a0: d570 913c be62 133d b1ce 663c 013f 4a3c
000000b0: eb73 cf3c 36ad d6ba 163e d8ba 9aa4 dfba
000000c0: e128 daba ab1b dcba 8f0b e4ba d6cb d9ba
000000d0: 706d dcba 5616 e4ba a8f5 5e39 47d3 2e39
000000e0: 8d9e f238 46c2 4b39 1f04 1b39 6ee6 c638
000000f0: e58e 4539 edc4 1139 ce45 ad38 8889 68bd
00000100: 1c86 95bc 1642 8b3a 5f84 3abd 49ef 7bbc
00000110: 3aa3 d8ba c4a0 5abd 169e c7bc e402 afba
00000120: 2f06 0080 7810 0100 7b19 0080 aa1b 0080
00000130: 6fcb 0080 2065 0180 5334 0000 e346 0080
00000140: f124 0180 a0d0 093d 59d1 9b3c a92a d5bb
00000150: a6d9 713c 44e2 103b ce90 18bc 13c8 113c
00000160: c31a 0bbc 6136 0bbd a4ce 263c bf59 983c
00000170: 937f 9a3a 1451 a93c dc48 94bb 3b6a a2bc
00000180: c6be 3e3b 05c5 d639 50fb 1abd 0cd9 953c
00000190: 2fc8 8a3c 07ef 563c ad1c 863c 5201 793c
000001a0: 1045 3c3c 4e7b 713c 51ca 593c 764a 183c
000001b0: 9256 4d3d 3906 de3c 7800 363c 3346 c53c
000001c0: 8ff0 963b eb22 29bc 0546 613c dbe4 91bc
000001d0: 5d69 c3bc f7d6 0000 1e77 0080 e98f 0080
000001e0: fa2f 0000 9722 0080 7647 0080 c4cf 0000
000001f0: b093 0080 5c2d 0000 1760 1422 4d2a ed21
00000200: 1490 6621 8ec3 0e22 4bdd dd21 c742 3821
00000210: 929e 1822 ff89 e921 f25b 3d21 8631 803c
00000220: 97a0 363c 0638 f1bc eab9 e43c 3ced a03c
00000230: 259a 2fbc 2fe2 fb3c 4a6b bc3c acc2 50bb
00000240: 3fad 0000 6685 0000 19a7 0080 261a 0000
00000250: 972c 0000 ca07 0000 77b1 0000 f4be 0000
00000260: 365f 0080 30bb ca3c d0f8 ac3c 9613 6e3c
00000270: d874 123d 9c8f 4c3c 5b8f 803b adac 9d3c
00000280: 970d 56ba 66ac edbb b97c 4d3d a170 b73c
00000290: 9fc0 4c3b 4376 cb3c 7d3d d3ba fb3f 11bd
000002a0: ed7d 3ebc df9d 06bd 7639 83bd d54a dfb4
000002b0: c274 eab4 927d e2b4 ec88 f5b4 391b 01b5
000002c0: c8f7 fab4 79e9 edb4 8f76 fbb4 6d9c f5b4
000002d0: e26e 411e 8886 431e 6214 0f1e e167 fb1d
000002e0: ecce 041e 2d55 cc1d f64a 4d1d 312f 591d
000002f0: 6471 271d 9946 023d f7d8 c03c 9b20 74bc
00000300: e146 d938 506a 49bc 5304 1dbd 4c85 c2bc
00000310: 489d 5bbd b71e 9cbd 3772 3d3b fca5 3b3b
00000320: 8fd0 373b 053a 3e3b 9768 3b3b 66f4 373b
00000330: 7880 363b fcff 313b 3950 2f3b 15d0 9c3d
00000340: 8241 9e3d 3251 cd3d 5c21 9c3d 15fa 973d
00000350: 5ab2 b93d 22db a13d b288 983d 769a bc3d
00000360: 7a3e 98bc 593f c8bc c788 37bc 589b 91ba
00000370: ab41 ad3a 8063 a7bb 6f82 a9bc 0742 47bb
00000380: 35d7 59bc 2f64 9fbc cee3 f2bc 59ee a1bd
00000390: 464c 80bc 4ef8 bbbc 3435 84bd 9c16 44bd
000003a0: 8893 4cbd 78f4 bebd 7296 2c3d 1992 9d3c
000003b0: 0154 443c 3714 003d ae48 3b3c a974 6abb
000003c0: 4a17 803c a407 dcba 56ef dbbc bf4f 6bbc
000003d0: 3293 8cbc eb2b 02bd 1ec8 acbc 564f 31bd
000003e0: 1685 7fbd 252e 3bbd f5e0 6bbd 2945 abbd
000003f0: 5459 0000 fad1 0000 5a31 0000 6871 0080
7.5962e-41 3.0949e-41 -8.3327e-41 -5.9862e-41 -8.7769e-41 7.9727e-41 -8.5462e-41 -7.3344e-41
3.428e-41 0.011787875 0.00993308 0.0064822785 -0.0062899166 0.00057059445 -0.008349885 -0.01675068
-0.020904627 -0.023903886 0.038430545 0.029296203 0.013962292 0.0018599788 0.00062482787 -0.0070319464
-0.021259837 -0.03185412 -0.042457055 2.4382965e-24 2.4054454e-24 1.329599e-24 2.1722614e-24 2.1419177e-24
1.2245835e-24 1.44969225e-24 1.4323067e-24 8.305203e-25 0.03267118 0.026420046 0.045909673 0.013558273
0.017753998 0.03598284 0.014087365 0.012344123 0.025323829 -0.0016378525 -0.0016497995 -0.0017062605
-0.0016644263 -0.0016792914 -0.0017398464 -0.0016616534 -0.0016817283 -0.0017401676 0.00021263084 0.0001667264
0.000115689916 0.00019431961 0.00014783487 9.4842966e-05 0.00018840616 0.00013901638 8.262285e-05 -0.056771785
-0.018252425 0.0010624554 -0.045536395 -0.015376874 -0.0016528137 -0.053375974 -0.024367373 -0.0013352302
-2.218e-42 9.7743e-41 -9.14e-42 -9.924e-42 -7.2978e-41 -1.28112e-40 1.877e-41 -2.543e-41
-1.05088e-40 0.033646226 0.019020723 -0.0065053296 0.014761364 0.002210752 -0.009311868 0.008897799
-0.008490267 -0.033987407 0.010181103 0.018597482 0.0011787288 0.020668544 -0.004525287 -0.019826045
0.002910541 0.00040964052 -0.037837327 0.018291973 0.016941158 0.013118512 0.016371096 0.015198069
0.011491075 0.014738871 0.013292865 0.009295097 0.050131388 0.027102577 0.01110851 0.024081325
0.0046063135 -0.0103232665 0.013749604 -0.017809322 -0.023853952 7.7115e-41 -4.2731e-41 -5.1625e-41
1.7211e-41 -1.2408e-41 -2.5635e-41 7.4532e-41 -5.298e-41 1.6272e-41 2.010861e-18 1.6070942e-18
7.8117717e-19 1.9348114e-18 1.5034118e-18 6.2430004e-19 2.0683788e-18 1.5825221e-18 6.415738e-19 0.015648615
0.011146686 -0.02944566 0.027920682 0.019644372 -0.010717903 0.030747501 0.023000378 -0.0031854315
6.2149e-41 4.7854e-41 -5.9943e-41 9.38e-42 1.5996e-41 2.794e-42 6.3662e-41 6.8501e-41
-3.4155e-41 0.024747461 0.021114737 0.014531037 0.035755962 0.012485411 0.0039233393 0.019247377
-0.0008165477 -0.0072532175 0.050167773 0.022392573 0.003124274 0.024836665 -0.0016116347 -0.035461407
-0.011626703 -0.0328654 -0.06407444 -4.1591434e-07 -4.367085e-07 -4.2187145e-07 -4.573443e-07 -4.809586e-07
-4.6746413e-07 -4.4314564e-07 -4.6838656e-07 -4.574862e-07 1.0240265e-20 1.03510345e-20 7.574572e-21 6.6546555e-21
7.030812e-21 5.408642e-21 2.7170278e-21 2.8744108e-21 2.2160888e-21 0.03180561 0.023540957 -0.014900352
0.000103605686 -0.012293413 -0.038334202 -0.023745202 -0.053616792 -0.07623046 0.0028907189 0.002863287
0.0028047895 0.0029026282 0.0028596276 0.0028069257 0.002784757 0.0027160635 0.0026750697 0.07656876
0.077273384 0.100252524 0.0762355 0.07420746 0.09067221 0.079031244 0.074479476 0.092091486
-0.018584479 -0.024444269 -0.011202044 -0.0011108918 0.0013218423 -0.005108297 -0.020692078 -0.0030404346
-0.013295938 -0.019456951 -0.029649641 -0.07906789 -0.01566137 -0.02294555 -0.0645546 -0.047873124
-0.049945384 -0.093239725 0.042135663 0.019234704 0.011982919 0.03126928 0.011430902 -0.0035775101
0.015636105 -0.0016786945 -0.026847523 -0.014362275 -0.017160032 -0.031780165 -0.021091517 -0.04328855
-0.06238278 -0.045698304 -0.057587583 -0.08362801 3.2045e-41 7.5325e-41 1.7704e-41 -4.0682e-41

bias f4 [32]
00000000: 64e9 3e3d 7b90 a69c eac1 e23c 75e0 86bc
00000010: a1bc 9ebc 8b95 acb9 bd20 433b 6de9 53bb
00000020: 53e7 923c a390 fabb 9d5f a5b9 7f99 a9bb
00000030: c41b 173c f336 a73c c681 443c 0b2b 55bd
00000040: 8c2f 66ba 2783 8cac e84e 9dbb 170c 1e3b
00000050: 5370 f23b dd64 35a7 75af d8ba 8763 67ba
00000060: 37be f5bb 534d b0bb f4a0 83ba 9ced cbb7
00000070: 503b ceb9 034d b23b c45e 4c3c 07a2 633b
0.046609297 -1.1022306e-21 0.027680356 -0.016464451 -0.019377055 -0.00032917815 0.0029774152 -0.0032335178
0.01793257 -0.0076466366 -0.0003154249 -0.005175769 0.009222928 0.020411944 0.011993831 -0.052043002
-0.0008780889 -3.9936e-12 -0.004800666 0.0024116093 0.007398644 -2.5173474e-15 -0.0016531782 -0.00088267814
-0.007499482 -0.0053803115 -0.0010042475 -2.4310131e-05 -0.00039335573 0.0054413094 0.012473766 0.0034734027

weight f4 [32, 64, 3, 3]
00000000: 7840 0000 0546 0100 7999 0080 ccb4 0080
00000010: 6185 0080 858e 0180 bf54 0100 5e35 0080
00000020: 74f7 0100 839d 180b 9488 ae0e 483b 0b0f
00000030: 30b9 a50d d7e8 840f 7533 be0f 25e6 830d
00000040: 998c 550f 5170 990f 6c65 0080 da1b 0000
00000050: 39a3 0080 d857 0000 a4a3 0080 b023 0000
00000060: 4501 0080 b786 0080 491a 0080 7974 0000
00000070: a10f 0280 2bbf 0100 3797 0180 99e6 0080
00000080: a26b 0180 e139 0000 6226 0080 1893 0000
00000090: 9880 0000 db92 0080 9a8b 0080 b722 0080
000000a0: 6265 0080 6e66 0080 f984 0080 e501 0000
000000b0: 67b7 0000 340f 0200 4029 0180 c10e 0180
000000c0: 7cfb 0100 f638 0180 5a36 0180 80d5 0180
000000d0: 8a09 0180 503e 0180 9e4e 0080 71ea 0000
000000e0: 5617 0180 20a0 0080 7db4 0100 2b7f 0080
000000f0: be96 0100 5f32 0200 c807 0080 d635 0200
00000100: 55b8 0580 f200 0100 f000 0000 8058 0100
00000110: aa18 0000 c344 0080 5284 0080 f922 0000
00000120: 6d2b 0180 3620 0180 16a2 0080 6900 0000
00000130: 688a 0080 4d25 0100 914b 0180 ded9 0080
00000140: 6761 0080 97c4 2a84 8a80 1985 4f7f 0f85
00000150: 27a3 f984 0d71 5b85 dae6 5085 117c 0b85
00000160: 1901 5985 d272 3f85 12d0 a8a7 505d 10a8
00000170: 41d5 20a8 14ef f3a7 4206 47a8 60b8 52a8
00000180: 1249 06a8 db70 4fa8 7248 52a8 8376 0000
00000190: 0158 0180 121f 0000 cc88 0100 8b0f 0080
000001a0: 8469 0080 0ede 0000 25bb 0180 596f 0000
000001b0: 0c65 8a08 b890 8808 a2ca 6a08 1ad0 1289
000001c0: 5a5c 2d89 d7e8 1e08 3e9e e989 c08e ea89
000001d0: 493d dc87 d866 0000 9179 0000 4f1f 0280
000001e0: 851f 0280 de79 0000 2219 0280 8226 0000
000001f0: 9f35 0000 001d 0000 16fa 0080 54bb 0180
00000200: 8c8d 0080 4821 0180 7c00 0180 d9b0 0080
00000210: 919e 0080 5f05 0180 63a4 0080 192a cc98
00000220: cb37 7d98 8c26 4498 573e d698 cd05 8798
00000230: 368e 3598 96d5 0398 25a6 9497 855a 2297
00000240: 6408 0100 6e79 0180 5b5a 0180 d14d 0180
00000250: 09ab 0000 f94b 0180 52ba 0100 7216 0100
00000260: db87 0080 bb04 1c8c 6370 0a0b 1a5b 2a8c
00000270: 4f97 128c 152c 900d cbf6 880b 555e 128c
00000280: 2c53 670d 20e9 ce89 a486 5b8b 5d88 0a8c
00000290: f92e 5a8b 5bf6 e28b c944 2f8c d388 c78b
000002a0: 10af ad8b 5539 208c c458 958b 28d3 0080
000002b0: 76ac 0000 c3ef 0100 7210 0180 b5ad 0100
000002c0: b629 0100 60ab 0000 40f7 0080 d214 0180
000002d0: aa76 0080 f25f 0080 4cdb 0000 399a 0000
000002e0: ca66 0100 8a92 0180 b93b 0000 0c7f 0180
000002f0: 8f29 0100 818d 7d91 f16f 0994 3ad4 2294
00000300: c50a 8b92 b905 6d94 311e 6c94 8d7a 7192
00000310: 6025 2f94 10bc 2294 9d22 0000 1d15 0000
00000320: 2704 0080 ef46 0100 273f 0100 c580 0000
00000330: 98ec 0000 fede 0000 13b9 0000 3f20 0080
00000340: 9527 0180 dca7 0080 39ba 0080 1483 0000
00000350: 0c17 0100 b665 0080 76e0 0080 8605 0180
00000360: 2155 11a1 9e65 bca1 9b02 4da2 434d 56a1
00000370: 786c 05a2 2568 84a2 749b 61a1 63e4 00a2
00000380: 6427 69a2 1276 0080 f3b6 0080 3955 0080
00000390: 375a 0080 2747 0000 3963 0080 5c90 0080
000003a0: b87f 0080 f39d 0080 aff2 4ba1 34c1 cfa1
000003b0: 8844 eea1 0d1b c0a1 79fa 2fa2 0337 38a2
000003c0: 0300 f4a1 aa35 48a2 1b44 42a2 4597 d707
000003d0: d55a 5608 fdd8 5808 08e2 3008 7c07 8008
000003e0: bcea 2808 ae37 0a08 5148 5f08 b72e 8208
000003f0: 2d98 0080 bd67 0000 27d6 0000 1011 0100
2.3127e-41 1.16954e-40 -5.5056e-41 -6.4858e-41 -4.7847e-41 -1.42962e-40 1.22237e-40 -1.9145e-41
1.80605e-40 2.9392634e-32 4.302583e-30 6.864646e-30 1.0213492e-30 1.3105892e-29 1.8755267e-29 8.128904e-31
1.0528789e-29 1.5130228e-29 -3.6383e-41 9.991e-42 -5.8553e-41 3.1512e-41 -5.8703e-41 1.2802e-41
-4.55e-43 -4.8327e-41 -9.43e-42 4.1783e-41 -1.89278e-40 1.60414e-40 -1.46081e-40 -8.2723e-41
-1.30447e-40 2.0763e-41 -1.3769e-41 5.2767e-41 4.6131e-41 -5.2682e-41 -5.008e-41 -1.2453e-41
-3.637e-41 -3.6745e-41 -4.7702e-41 6.8e-43 6.5792e-41 1.89125e-40 -1.06633e-40 -9.7128e-41
1.82051e-40 -1.12269e-40 -1.11333e-40 -1.68425e-40 -9.5257e-41 -1.14189e-40 -2.8203e-41 8.4102e-41
-1.00207e-40 -5.7442e-41 1.56582e-40 -4.5619e-41 1.45912e-40 2.01741e-40 -2.791e-42 2.02984e-40
-5.25303e-40 9.2175e-41 3.36e-43 1.23583e-40 8.848e-42 -2.4667e-41 -4.7468e-41 1.2546e-41
-1.07414e-40 -1.0339e-40 -5.8145e-41 1.47e-43 -4.9651e-41 1.05216e-40 -1.18944e-40 -7.8156e-41
-3.4941e-41 -2.0073674e-36 -7.217634e-36 -6.7472106e-36 -5.868945e-36 -1.0318095e-35 -9.822514e-36 -6.558536e-36
-1.02034926e-35 -9.001866e-36 -4.6854957e-15 -8.01384e-15 -8.928026e-15 -6.7705258e-15 -1.1048076e-14 -1.1697322e-14
-7.454339e-15 -1.151528e-14 -1.1673051e-14 4.2514e-41 -1.23405e-40 1.1146e-41 1.40909e-40 -5.576e-42
-3.7852e-41 7.9658e-41 -1.5897e-40 3.9944e-41 8.329329e-34 8.2192255e-34 7.0655007e-34 -1.767196e-33
-2.0867541e-33 4.7820097e-34 -5.624152e-33 -5.6467692e-33 -3.313794e-34 3.6893e-41 4.361e-41 -1.94902e-40
-1.94978e-40 4.3718e-41 -1.92687e-40 1.3814e-41 1.9236e-41 1.0403e-41 -8.9714e-41 -1.59036e-40
-5.0777e-41 -1.03775e-40 -9.2009e-41 -6.3441e-41 -5.6883e-41 -9.3762e-41 -5.8971e-41 -5.277527e-24
-3.2727652e-24 -2.5351867e-24 -5.538065e-24 -3.490254e-24 -2.34655e-24 -1.7039187e-24 -9.606217e-25 -5.2459275e-25
9.4845e-41 -1.35396e-40 -1.24249e-40 -1.19751e-40 6.1356e-41 -1.1909e-40 1.58675e-40 9.9887e-41
-4.8736e-41 -1.2019226e-31 2.6662384e-32 -1.3123739e-31 -1.1292964e-31 8.885298e-31 5.275663e-32 -1.1275818e-31
7.1282485e-31 -4.9811926e-33 -4.2279158e-32 -1.0672169e-31 -4.202061e-32 -8.742271e-32 -1.3502209e-31 -7.685788e-32
-6.690058e-32 -1.2343204e-31 -5.752627e-32 -7.5749e-41 6.1867e-41 1.77846e-40 -9.7735e-41 1.5415e-40
1.06799e-40 6.1478e-41 -8.8697e-41 -9.9304e-41 -4.2569e-41 -3.4419e-41 7.8669e-41 5.5325e-41
1.28709e-40 -1.44404e-40 2.1424e-41 -1.37411e-40 1.06744e-40 -2.0001785e-28 -6.938809e-27 -8.220764e-27
-8.774788e-28 -1.1966571e-26 -1.1920909e-26 -7.6197247e-28 -8.842613e-27 -8.215999e-27 1.2417e-41 7.574e-42
-1.49e-42 1.17282e-40 1.1449e-40 4.6194e-41 8.4874e-41 7.9995e-41 6.6392e-41 -1.1568e-41
-1.06035e-40 -6.0217e-41 -6.6804e-41 4.7022e-41 1.00103e-40 -3.6487e-41 -8.0521e-41 -9.3817e-41
-4.924058e-19 -1.2766273e-18 -2.778406e-18 -7.2608275e-19 -1.8082284e-18 -3.588894e-18 -7.6438706e-19 -1.7468142e-18
-3.1598241e-18 -4.2356e-41 -6.563e-41 -3.0572e-41 -3.2363e-41 2.5525e-41 -3.5594e-41 -5.1786e-41
-4.5817e-41 -5.6662e-41 -6.9100264e-19 -1.4078006e-18 -1.6145647e-18 -1.3017586e-18 -2.3849522e-18 -2.4965773e-18
-1.6534086e-18 -2.7133464e-18 -2.6327957e-18 3.2438513e-34 6.4505055e-34 6.5255204e-34 5.322877e-34 7.705479e-34
5.083159e-34 4.1593316e-34 6.719163e-34 7.835073e-34 -5.459e-41 3.7214e-41 7.6823e-41 9.7956e-41

bias f4 [32]
00000000: ac94 c6b6 b981 503c 8a82 7baf ee57 ce3b
00000010: a018 b2b8 4e27 d63b f176 3dbc 4b31 203b
00000020: 79f1 7d3b 6c40 52b3 da0f 8d94 3128 3d3c
00000030: 9d89 97aa 1312 b7bb 505e 343c ed60 d23c
00000040: fc2a 1a96 746b 46ba b8aa 15bc 4482 0d97
00000050: 651c 31b7 58d0 f13c 5d45 833c 0759 093c
00000060: a6da 20bb 6498 48ba 15c1 04a4 8a88 683c
00000070: bc3c 473c 13f2 ae3c 206a 1dba 2913 8a3b
-5.9181675e-06 0.012726241 -2.2874694e-10 0.006297103 -8.492288e-05 0.006535447 -0.011564002 0.0024443443
0.0038748665 -4.8953027e-08 -1.4243614e-26 0.011545227 -2.6918477e-13 -0.0055868714 0.011008814 0.025680983
-1.2453584e-25 -0.00075691123 -0.009134941 -4.5723976e-25 -1.0556633e-05 0.029518291 0.016024286 0.008383042
-0.0024544387 -0.00076521025 -2.8786484e-17 0.01419271 0.012160476 0.021355664 -0.00060048886 0.00421371

weight f4 [32, 64, 3, 3]
00000000: 3306 75bb 15c2 d2b9 572f 9439 4c71 efba
00000010: 56e0 6b3b e337 9f3b 703a ba39 3ee6 d33b
00000020: 8bc0 e13b f839 603c 70a3 983c b0e6 ca3c
00000030: 079e 573c ca8c 5d3c 7bfb a23c 2c82 783c
00000040: 01f0 613c 78b6 863c 15f9 2bbb 8fb0 31bb
00000050: da48 e5bb 7919 083b 15cc 3a3b d21f babb
00000060: 9d31 343a d763 5eba ce18 a4bb 4dbd 2e3b
00000070: a5f8 1c3a 2d3c 523b a662 813a 1629 df3a
00000080: 19d2 fc3a 67a0 fe3a 34c3 cdb9 80ac 203b
00000090: 545b 382f b6ab 372f a583 1b2f 5810 612f
000000a0: 7f56 5c2f 0fdb 372f 8510 692f 5734 5c2f
000000b0: 2415 332f cb33 e0bb 9505 b0bb 4f12 85bc
000000c0: aae3 11bc e2b5 dfbb 5ece 49bc e172 87bc
000000d0: c72b 33bc cfb1 49bc 5aed 143d 58a8 0d3d
000000e0: a00c 023d a5b8 d13c 3358 c73c a229 be3c
000000f0: a91f d93c 1b63 9e3c 8aca b93c e515 a6bb
00000100: ee3c d6bb 0372 08bb 4f1e 3f3a a781 0ebc
00000110: d189 b2bb 1643 91bb 1fc2 98ba 3c0d a23b
00000120: 373a 823c afca f03b 945e cd3b 2b34 0a3c
00000130: ea49 563b 6373 913b c7bf 893c ee49 193c
00000140: 0fae 103c 2473 5a3b 9f38 9d3b 6a57 f43b
00000150: 8b3d da3a a50d 843b f519 bb3b cc3e 60bb
00000160: 02ed c0ba abb8 033a 4f37 ffbb f231 32bc
00000170: 92fb 1cbb 3904 74bb 3d31 0cbc 92c2 233b
00000180: d33f d139 ecb0 caba c5b7 7dbb 5aa9 82bb
00000190: c864 263c 535b c73b 870c d1bb 9fea 8fba
000001a0: a30f d93a 5e58 bbbb 442f b0ba 39f6 99ba
000001b0: 9a3a a2bc e66f 01bc f2ef bebb 678b 10bc
000001c0: 95b0 643b c439 0aba 107f 17bc f2d9 ccba
000001d0: e33e e4bb 7fd6 0080 8938 0100 ae3d 0180
000001e0: de95 0000 f3ef 0080 7b15 0180 4bd3 0000
000001f0: dae1 0080 5bdd 0080 0126 333d 9054 e33c
00000200: a901 153d e560 ef3c 911e 3f3c 1f99 a43c
00000210: 664f 363d 6c6b c03c 2316 043d b39f 0080
00000220: 49a3 0080 da54 0000 44b0 0000 1c2b 0000
00000230: aed7 0080 b30d 0180 dce9 0000 0272 0000
00000240: d02f af38 fcbb 01bb 5827 babb f760 493a
00000250: 371b 3f3b 1bc5 fbba 21aa b5ba a095 deba
00000260: aff0 7339 f50f 0000 49ee 0000 cb79 0180
00000270: d705 0180 c800 0080 cb88 0000 7772 0080
00000280: ce8b 0000 ae97 0080 4e22 583b 8669 9d3b
00000290: 7eee 103b 9936 00bb 1bc0 f63a 5741 ca39
000002a0: d252 2cba a578 a43a 8a79 683a 128c 443c
000002b0: 1a8a 583b d72e 063c 63f1 cc3b ff21 e73b
000002c0: 57cc 593a 3324 413c 9583 063c 74a1 2c3c
000002d0: 768a 0000 c9cb 0080 f394 0100 d5a6 0180
000002e0: ae82 0080 2c8d 0080 785e 0180 d7cd 0080
000002f0: 8540 0100 6dd7 d13b 33d5 f13b 3d7d 533b
00000300: 0a3f e53b 93b5 213c d1af 8f3b c647 563b
00000310: a859 853b 707e 293b 0538 583b 5d60 a839
00000320: a2bd 5dba e966 2b3b 4e98 88bb 337a 85bb
00000330: d70c 7738 d404 8fbb c39a 9abb 0e7a f839
00000340: fb91 6e3b dc6f 553b 487a b93b 7528 273c
00000350: 46b1 f13b 25ea 3d3b b852 a53b 8a35 873b
00000360: c94a f7bc 7c4b 88bc 4107 d4bc c2e5 c4bc
00000370: 2d4c 31bc fd52 92bc 5ddd 03bd 51a1 76bc
00000380: 1379 abbc 576b 8cbc c8ab 5fbc 4ddb c4bc
00000390: 465c 39bc c83e 12bc be57 96bc 2fa8 b8bb
000003a0: 6a8a ffbb 2bce f4bb 91c6 f33b c308 133c
000003b0: ec99 193c 1b8f 4a3c e5fa 1f3c f40a 433c
000003c0: 216f 7b3c eff5 4b3c 1c99 273c 5c76 083c
000003d0: 59b4 f23a c531 b13b 5018 823b 2269 483a
000003e0: f0db 733b 9b90 573b 4825 b63a 4064 913b
000003f0: ac3b 45bc 8863 073b d284 48bc 4dce 0cbc
-0.0037387728 -0.00040198924 0.0002826403 -0.0018268018 0.003599187 0.004858957 0.00035520224 0.006466656
0.006889408 0.013685696 0.01863262 0.024768203 0.013160235 0.013522336 0.019895306 0.015167754
0.013790132 0.01644443 -0.0026240994 -0.0027113294 -0.00699721 0.0020767136 0.002850299 -0.005680063
0.0006873848 -0.0008483505 -0.0050078398 0.0026663125 0.00059879787 0.0032079325 0.0009871318 0.0017025794
0.0019288688 0.0019426466 -0.00039246085 0.002451688 1.6767149e-10 1.6704757e-10 1.4143937e-10 2.0469437e-10
2.0039613e-10 1.6721578e-10 2.1197095e-10 2.0027478e-10 1.6287466e-10 -0.0068421117 -0.005371759 -0.016244082
-0.008904377 -0.006827102 -0.012317268 -0.01653427 -0.01093573 -0.012310459 0.03635917 0.034584373
0.03175032 0.02560074 0.024334049 0.023213211 0.026504355 0.019334367 0.022679586 -0.005068528
-0.006538025 -0.002081991 0.0007290588 -0.008697904 -0.005448558 -0.004433046 -0.0011654532 0.0049454253
0.0158969 0.0073483805 0.006267378 0.008435289 0.0032697865 0.004438804 0.01681508 0.009356005
0.008830561 0.003333279 0.0047980095 0.0074567096 0.0016650421 0.004029947 0.0057098814 -0.0034217117
-0.0014719071 0.0005024771 -0.0077885757 -0.010876166 -0.0023953659 -0.0037233962 -0.008556661 0.00249878
0.0003991114 -0.0015464104 -0.0038714272 -0.0039874734 0.010155864 0.0060838847 -0.006379667 -0.0010979957
0.0016560446 -0.0057173213 -0.0013441821 -0.0011746354 -0.019803334 -0.007900214 -0.0058269436 -0.008822299
0.003489529 -0.000527289 -0.009246603 -0.0015628918 -0.0069655045 -7.6947e-41 1.12116e-40 -1.13962e-40
5.3762e-41 -8.6078e-41 -9.9541e-41 7.5798e-41 -8.102e-41 -7.9407e-41 0.043737415 0.027750283
0.036378536 0.029221008 0.011665002 0.020092545 0.044509314 0.023488723 0.032247674 -5.7289e-41
-5.8576e-41 3.0439e-41 6.3232e-41 1.5465e-41 -7.7371e-41 -9.675e-41 8.3893e-41 4.0898e-41
8.353556e-05 -0.0019795885 -0.0056809597 0.00076819904 0.0029160508 -0.0019208522 -0.0013859906 -0.0016981848
0.00023263948 5.724e-42 8.548e-41 -1.35527e-40 -9.393e-41 -2.8e-43 4.9072e-41 -4.1062e-41
5.0152e-41 -5.4412e-41 0.0032979432 0.004803839 0.0022114809 -0.0019563793 0.0018825562 0.00038577124
-0.00065736205 0.0012548162 0.00088682084 0.011996286 0.00330413 0.008189878 0.0062543615 0.007053613
0.0008308342 0.011788416 0.008210083 0.01053654 4.967e-41 -7.3104e-41 1.45268e-40 -1.51684e-40
-4.6879e-41 -5.0643e-41 -1.25724e-40 -7.3841e-41 1.14981e-40 0.0064038546 0.0073801517 0.0032270693
0.00699604 0.009869951 0.0043849726 0.003269659 0.0040695257 0.0025862716 0.0032992375 0.00032115253
-0.00084587384 0.0026153869 -0.0041685468 -0.004073405 5.8901347e-05 -0.004364589 -0.004718156 0.00047393184
0.003640293 0.0032567894 0.005660329 0.010202517 0.007375869 0.0028978672 0.0050452612 0.0041262554
-0.030187028 -0.016637556 -0.025882365 -0.024035338 -0.010821384 -0.017861838 -0.03219353 -0.015053109
-0.020931756 -0.017141027 -0.013651796 -0.024030352 -0.011313504 -0.008926101 -0.018352386 -0.0056352834
-0.0077984827 -0.007470866 0.0074394424 0.008974257 0.009375077 0.012363221 0.009764408 0.011904467
0.015346319 0.012448772 0.010229375 0.008329 0.0018516883 0.0054075443 0.0039701834 0.00076450605
0.003720995 0.0032892588 0.0013896609 0.0044369996 -0.012038153 0.002065869 -0.012238698 -0.008594108

bias f4 [32]
00000000: 5ee4 183d f7eb 623c 8bcd ac3b 0b33 c33c
00000010: bb00 38bb e95b 6f3c 97a2 adb2 9261 8fa5
00000020: b0e5 a73b 8ca2 a39b bcc7 073d ab42 3d3d
00000030: e276 703c da1c 0f3d 9ce7 a23b d7c1 b4bb
00000040: 11e6 e9ba 66e3 8c3c babb 01bc 36f3 ffba
00000050: b18e 253d 51fe 82bc d1b6 e5bb 4d33 393d
00000060: ade4 13bb 017a 01b8 3b65 e73c 6087 e43a
00000070: bc22 33bb 4696 4f3c 2fbb cb3b 27eb b23b
0.037327163 0.013850204 0.005273526 0.02382805 -0.0028076607 0.014609315 -2.0213788e-08 -2.4872662e-16
0.0051238164 -2.7071131e-22 0.033149466 0.046206158 0.014676781 0.034939624 0.0049714576 -0.0055162716
-0.0017845054 0.017198276 -0.007918293 -0.0019527439 0.040419284 -0.015990408 -0.007010319 0.04521494
-0.0022566721 -3.086962e-05 0.028246513 0.0017435364 -0.0027333936 0.012670105 0.0062173824 0.0054601613

weight f4 [24, 64, 3, 3]
00000000: d2b1 ccba c177 33bb 5981 c63a f94e 1dbb
00000010: fe10 f4bb 678f 16bb 1c52 a239 57c5 c8ba
00000020: 3947 e23a 3ba0 05bb a4be 9abb 4e89 66bb
00000030: caf4 54ba 0836 f2bb bbe5 78bb cf92 223b
00000040: f008 b4ba f22c feba fe5a b3ba 44f3 26bb
00000050: 60a8 473b 08fa 2dbb 4267 d6bc 8207 543c
00000060: fbf1 303c affb eb3b 7925 903b e7ee 57bb
00000070: ef8a 413a e5ad 1db8 9dce 33bb 40d8 143b
00000080: 51f1 fbb9 40db 75ba cfd0 983a 5086 4bbb
00000090: a2e3 f0bb 1f44 193b d620 263b 16a8 a43a
000000a0: a86a 2abc 4f2c 36bb 8273 12bc ba83 453b
000000b0: 5fae c53a 4530 0080 db04 0080 8860 0080
000000c0: 7b13 0000 4544 0000 9928 0080 5b07 0000
000000d0: 8920 0000 0d46 0080 8f9d ea36 d016 5637
000000e0: 6519 7637 f9d4 1537 df34 7a37 81dd 9137
000000f0: d6dc 1d37 3286 7537 4b77 8837 1c19 db3a
00000100: cb43 723b 2c51 2e3b 3fc2 0aba 927d 70bb
00000110: 9f54 463b c0fc 98bb 357d daba 20d2 02bb
00000120: 554f 693b fb0d fc3b 9785 313b 32f2 edbb
00000130: daf1 7dbc 3948 8cbb 812f ccbb f1dd 8d39
00000140: cd4d b3ba d6ae 3ebc 14ad 0fbb 59cb 6abc
00000150: b050 1d3b b63a 84bc c330 8cb7 2231 283b
00000160: aa83 113c 7c38 5fbb 8a21 0000 8256 0000
00000170: 3737 0000 00dd 0000 99cd 0000 b3cd 0000
00000180: 360c 0000 11a3 0000 c0a7 0080 54fa 153b
00000190: fe05 2d3a 66fc a53a 8bd5 a9ba 141c e0bb
000001a0: 7709 2539 e2c3 a6ba 2c15 093a 6357 d13a
000001b0: 3d66 a83b d08e 4f3b 1c1d 123b 3d04 b93b
000001c0: 6950 733b e23d c4b9 cdd2 b73b 2e24 a53b
000001d0: 72f1 b93a ff6b 553b 2332 263b f1a9 043b
000001e0: 1ddb d03b 8e5c 2c3b f99e 703b e449 b43a
000001f0: 480a 973a 602a 783a dc41 613b ea89 ca3b
00000200: 4054 7a3b 9313 0f3a 0e3d 913b 1e00 8c3b
00000210: 05ed 00b9 7966 c9ba a7ea d839 ee5c c439
00000220: 1a13 82ba a766 8eba 1c11 5639 6c03 7abb
00000230: 6ee1 6bbb 00a3 4239 dd7c 52bb ecb1 2ebb
00000240: bae1 83ba 279f 9cba 1b12 1eba 2dbc 7bbb
00000250: c7d0 4dbc 95c8 32bb e153 363b 6c46 30b9
00000260: 222c edb9 2761 0180 e1b7 0000 8f60 0080
00000270: 7ba1 0080 6f3e 0100 1c9b 0080 e5af 0080
00000280: 922a 0180 270c 0080 3e6c 0fba 8bdc 8cba
00000290: 9601 98ba a70c 723a 154d c9b9 7c6b 9dba
000002a0: 82d7 413a 931b 763a fadd e0b9 ef21 5b3a
000002b0: 370a 523a 070a 383a f867 1a3c 1ec8 fc3b
000002c0: bfad 0a3c 6cba 1bbb b399 ffba 8638 07bb
000002d0: 8a39 833b 8e66 073c cdb5 233a e52e 6c3b
000002e0: 0595 883b 5ecb 253a d0ad 653b e512 f93b
000002f0: dd90 0f3a d3d2 af19 9148 3119 e05f 0f9a
00000300: 9e40 9119 068f 9e19 13a3 199a 57d4 8818
00000310: dc55 ee19 6e21 9918 0415 2ebc 0aa1 03bc
00000320: 65f3 fbbb bda7 fdbb 0181 4fbc 012c 21bc
00000330: 553a 25bc 02e8 0cbc f8f3 4dbc 8728 1ebc
00000340: 22a1 abbb db89 6cbc e3f4 d7bb 9b74 88bc
00000350: 633d c7bb 1583 71bc e8cd afbb bd7d 4dbc
00000360: 0d84 04bc cedd aa3b 8de9 f43a a1d6 9a3b
00000370: a05c 423c cb50 513c f903 273c 771b 543c
00000380: d19d 343c 4afd de3a 9060 9eba 2d39 1ebb
00000390: e4e5 353b e77a 71b9 6494 71bb c6f8 113b
000003a0: 28b0 fe3a 3082 8339 2c3c a8ba ef94 973b
000003b0: 83be 86bb 874b 603b 68ca 383c 3e08 d439
000003c0: 915e 06bc bc3d 483b 6da3 a9bb 4fbd 0080
000003d0: d73f 0080 0587 0080 be05 0000 ea61 0080
000003e0: c267 0080 c671 0000 c430 0080 636a 0080
000003f0: c74d 0080 c3bd 0000 0533 0000 5269 0080
-0.001561696 -0.0027384611 0.001514475 -0.002400337 -0.0074483147 -0.0022973658 0.00030960224 -0.0015317601
0.0017263658 -0.0020389694 -0.004722433 -0.0035177055 -0.00081236346 -0.007391695 -0.0037978727 0.0024806743
-0.0013735574 -0.0019392057 -0.0013683734 -0.0025474587 0.003046535 -0.0026546735 -0.026172284 0.012941243
0.01079988 0.007201634 0.0043989983 -0.0032948793 0.00073830684 -3.759367e-05 -0.0027436384 0.0022711903
-0.00048054245 -0.0009378679 0.001165891 -0.0031055398 -0.0073513547 0.002338655 0.0025349162 0.00125623
-0.010401405 -0.0027797406 -0.008938672 0.003013833 0.0015081874 -1.7316e-41 -1.742e-42 -3.4629e-41
6.988e-42 2.449e-41 -1.4564e-41 2.639e-42 1.1671e-41 -2.513e-41 6.9920857e-06 1.2760705e-05
1.4668655e-05 8.930679e-06 1.4913471e-05 1.7388493e-05 9.409347e-06 1.4634383e-05 1.6268013e-05 0.0016715857
0.0036966677 0.0026598675 -0.0005293227 -0.003669594 0.003026284 -0.004668802 -0.0016669395 -0.001996167
0.0035600264 0.0076920963 0.0027087682 -0.007261538 -0.015499556 -0.0042810705 -0.006231249 0.00027058975
-0.0013679803 -0.011638364 -0.002192323 -0.014330708 0.0024004392 -0.016141277 -1.6712007e-05 0.002566405
0.008881489 -0.0034060767 1.2032e-41 3.1033e-41 1.9807e-41 7.928e-41 7.3755e-41 7.3791e-41
4.38e-42 5.8497e-41 -6.0177e-41 0.0022884803 0.0006600319 0.0012663722 -0.0012957318 -0.0068392847
0.00015739152 -0.0012723173 0.000522929 0.0015971478 0.005139141 0.0031670816 0.0022295183 0.005646257
0.0037126786 -0.0003743014 0.005609846 0.0050397133 0.0014186336 0.0032565591 0.0025359474 0.0020242895
0.0063737766 0.0026300284 0.003671585 0.0013754931 0.001152345 0.00094667636 0.003437153 0.0061809914
0.003819719 0.0005457934 0.004432327 0.004272475 -0.00012295328 -0.0015365622 0.0004137356 0.0003745327
-0.0009923906 -0.0010864333 0.00020415004 -0.0038149012 -0.003599252 0.00018562004 -0.0032117881 -0.0026656343
-0.0010061779 -0.0011949287 -0.00060299196 -0.0038411722 -0.012561983 -0.00272802 0.0027820992 -0.00016810902
-0.00045237044 -1.26687e-40 6.5963e-41 -3.4639e-41 -5.7928e-41 1.14232e-40 -5.5643e-41 -6.3099e-41
-1.07107e-40 -4.36e-42 -0.00054711464 -0.0010746879 -0.0011597152 0.0009233453 -0.00038395138 -0.0012010182
0.0007394479 0.0009388264 -0.00042889995 0.00083592435 0.00080123864 0.0007020537 0.009424202 0.0077142855
0.008464276 -0.002376224 -0.0019500762 -0.0020633056 0.004004662 0.008264197 0.0006245047 0.0036038694
0.004168155 0.00063245546 0.0035046227 0.0076011294 0.00054766034 1.8179727e-23 9.16534e-24 -2.9649154e-23
1.5018747e-23 1.6394584e-23 -3.177139e-23 3.5369584e-24 2.4643302e-23 3.958333e-24 -0.010625128 -0.008034
-0.007688927 -0.007740943 -0.012665034 -0.0098371515 -0.010084708 -0.008600237 -0.012570374 -0.009653217
-0.0052377144 -0.014437164 -0.006590472 -0.016657164 -0.006080316 -0.014740725 -0.005365122 -0.012542185
-0.008088124 0.0052144295 0.0018685326 0.004725293 0.011862904 0.01277561 0.010193818 0.012946001
0.0110239545 0.0017012742 -0.0012083221 -0.0024142966 0.0027755434 -0.00023029336 -0.003686213 0.0022273525
0.0019431161 0.00025083264 -0.0012835315 0.0046259086 -0.0041120662 0.0034224705 0.011278726 0.00040441932
-0.008201257 0.0030554375 -0.0051769526 -6.7911e-41 -2.2901e-41 -4.8436e-41 2.06e-42 -3.5125e-41
-3.7221e-41 4.0814e-41 -1.7494e-41 -3.8164e-41 -2.7901e-41 6.8074e-41 1.8302e-41 -3.7782e-41
